files/dataTelegram.pth (torch, 4695 bytes, 6 tensors)

l1.weight f4 [8, 48]
0	0xbe6ee761	-0.23330452
1	0x3f124931	0.5714293
2	0x3ea4e7a3	0.32207975
3	0xbdecd145	-0.115633525
4	0xbe8d89ba	-0.2764414
5	0x3edd6f9b	0.4324921
6	0xbf10ff2b	-0.56639355
7	0x3d476367	0.04867878
8	0xbe195147	-0.14972411
9	0x3d6d72eb	0.057970922
10	0x3d6d49a4	0.057931557
11	0xbe3441a4	-0.17603165
12	0x3ebc7f11	0.36815694
13	0xbd3e77da	-0.046501018
14	0xbf10ff50	-0.56639576
15	0xbd99a962	-0.0750301
16	0x3f02cd18	0.510942
17	0xbe0f5efc	-0.14001077
18	0x3f20bb34	0.6278565
19	0x3f09c395	0.5381406
20	0x3f2bf4f3	0.6717064
21	0x3f114c7f	0.5675735
22	0xbe0aa568	-0.1353966
23	0xbe8108bf	-0.25201985
24	0xbe83a85b	-0.25714383
25	0xbef2216b	-0.4729112
26	0x3c37ac40	0.011210501
27	0xbe716ce9	-0.23576702
28	0xbda5f5a4	-0.08103493
29	0x3e2a6e5b	0.1664366
30	0xbe1fbb91	-0.15598895
31	0xbe0a0738	-0.13479316
32	0x3e858c97	0.26083824
33	0xbee1acba	-0.44077092
34	0xbdded7cd	-0.108810045
35	0x3f65fe09	0.8984075
36	0xbe458028	-0.19287169
37	0xbe582d8b	-0.21111123
38	0x3f5ded68	0.8669038
39	0x3eb8a89e	0.36066145
40	0x3ea56ba2	0.3230868
41	0xbeb20e58	-0.34776568
42	0x3e9c503b	0.3052996
43	0x3eaa5f4f	0.3327584
44	0xbe1b6397	-0.1517471
45	0xbe53605a	-0.20642224
46	0x3e97d3ad	0.29653683
47	0xbe9a71c4	-0.3016492
48	0xbdd31db1	-0.103083976
49	0xbe7ea7b0	-0.24868655
50	0xbddbe413	-0.10736861
51	0x3d81d667	0.06339722
52	0x3f0f0100	0.558609
53	0xbe0b8b15	-0.13627274
54	0x3e4edf62	0.20202401
55	0x3ede5837	0.43426678
56	0x3db6abe2	0.08919503
57	0x3c51aa05	0.0127968835
58	0x3c974880	0.018467188
59	0x3e90319d	0.28162852
60	0xbdba4233	-0.09094658
61	0xbca4c56e	-0.020113673
62	0x3f0b2cfa	0.54365504
63	0x3e866c9a	0.2625473
64	0xbeb67074	-0.3563267
65	0x3e4ba224	0.1988607
66	0xbeb6779c	-0.3563813
67	0xbd8f489f	-0.06996273
68	0xbeb670cb	-0.3563293
69	0xbeb673ae	-0.35635132
70	0xbc8c68e6	-0.017139863
71	0x3ed9f464	0.42569268
72	0xbd1de11b	-0.038544755
73	0xbeab0bc4	-0.33407414
74	0x3c7064f6	0.014672508
75	0x3e6b8d70	0.23003173
76	0x3d89f741	0.06736613
77	0x3e8066f8	0.2507856
78	0x3f1be323	0.6089346
79	0x3e48231a	0.1954464
80	0x3eb8df65	0.36107937
81	0x3e929118	0.28626323
82	0x3ee982ff	0.45607755
83	0x3f59a611	0.8501902
84	0x3e82217f	0.2541618
85	0x3e2c41f0	0.16822028
86	0xbf0050ff	-0.5012359
87	0xbdc7f3f2	-0.09763326
88	0x3eae6910	0.3406453
89	0xbdad2bbe	-0.08455609
90	0xbd971246	-0.07376532
91	0x3e840b83	0.25790033
92	0xbd0afc75	-0.033932168
93	0x3f07a713	0.5298931
94	0x3eb82f11	0.3597341
95	0x3f3ba5c8	0.7329984
96	0x3e8f0f9d	0.279416
97	0x3ec60af7	0.3868024
98	0xbd4d93bd	-0.050189722
99	0x3e747264	0.23871762
100	0x3d84f5bc	0.064921826
101	0x3e1d05a4	0.15334183
102	0x3e5b90e5	0.21441992
103	0xbdab3fa7	-0.0836175
104	0x3ce4d285	0.027932415
105	0xbe25e89b	-0.16202013
106	0xbe25eead	-0.16204329
107	0x3e0321b5	0.12805827
108	0xbd93acfc	-0.072107285
109	0x3f157dad	0.5839489
110	0x3e9f354b	0.31095347
111	0x3dc62d8a	0.09676655
112	0x3f1f614c	0.6225784
113	0x3c9c549a	0.01908331
114	0x3f029180	0.51003265
115	0xbed59a2b	-0.41719183
116	0x3f0d72c1	0.55253226
117	0x3f127f5c	0.57225585
118	0x3f251e0f	0.6449899
119	0x3d5169d8	0.05112633
120	0xbe2f4b70	-0.17118621
121	0xbe81f0fc	-0.2537917
122	0x3f244d27	0.64180225
123	0x3e6310fd	0.2217445
124	0x3e4545cc	0.19264907
125	0xbe53f37e	-0.20698354
126	0xbd8e906d	-0.06961141
127	0x3dc8fd06	0.098138854
128	0x3e291cf5	0.16514952
129	0x3e84514a	0.2584327
130	0xbe24aafd	-0.16080852
131	0x3ef49ee6	0.4777748
132	0x3e288168	0.16455615
133	0x3cac73c7	0.0210513
134	0xbf09e115	-0.5385907
135	0xbed4c738	-0.41558242
136	0x3eb33e5d	0.35008517
137	0xbe9845ee	-0.29740852
138	0x3f15b5ea	0.58480704
139	0x3e87691f	0.2644739
140	0xbe4fb6c3	-0.20284562
141	0xbeb56de3	-0.354354
142	0xbe63ce57	-0.22246681
143	0xbe2c8e7b	-0.16851227
144	0x3e9e1c4e	0.3088097
145	0xbd070000	-0.032958984
146	0xbd04168a	-0.032248057
147	0x3db6db75	0.08928577
148	0x3eb3cc8c	0.35116994
149	0x3ca7c608	0.02048017
150	0x3ecb3348	0.39687562
151	0x3e7391f7	0.2378615
152	0x3e1d8271	0.1538179
153	0x3e24107e	0.16021916
154	0x3df01e10	0.11724484
155	0x3e829783	0.2550622
156	0xbd834c69	-0.064110585
157	0x3ef5825b	0.47951016
158	0x3e935706	0.2877733
159	0x3e0c2754	0.13686877
160	0x3f145bec	0.5795276
161	0x3e388f38	0.18023384
162	0x3f01ef90	0.5075617
163	0xbe5f6474	-0.21815664
164	0x3f03a955	0.51430255
165	0x3f0d9e8a	0.55320036
166	0x3ede4bef	0.43417308
167	0x3eb48607	0.35258505
168	0xbc97415c	-0.018463783
169	0x3b4b42f1	0.0031015242
170	0x3f26e418	0.65191793
171	0x3eab8046	0.33496302
172	0x3ea1bd98	0.3158996
173	0x3dfab9ef	0.12242495
174	0x3f23b657	0.63950104
175	0x3d8386b7	0.06422179
176	0x3e6d3aae	0.23166916
177	0x3e463f79	0.1936015
178	0x3e59544d	0.21223564
179	0x3f4193c8	0.7561612
180	0x3d387716	0.045035444
181	0xbcd2774d	-0.025691653
182	0xbf1ab9b4	-0.6043961
183	0xbeb38160	-0.35059643
184	0x3ee3c2bf	0.44484517
185	0x3db023bb	0.08600565
186	0x3ed4801a	0.41503984
187	0x3ee42c33	0.4456497
188	0x3e18a7da	0.1490778
189	0x3d90f612	0.07078184
190	0x3e329c7f	0.17442511
191	0x3f04ccb6	0.51874864
192	0x3f03bf73	0.51464003
193	0xbe132d5e	-0.14372775
194	0x3e9af7f2	0.30267292
195	0x3e6a871e	0.22903106
196	0xbcdde7d1	-0.027088078
197	0x3e9b7688	0.3036387
198	0x3f442d71	0.7663184
199	0xbd91dccb	-0.07122191
200	0xbbe61995	-0.0070220926
201	0x3f36ebdc	0.7145364
202	0x3f41bac7	0.75675625
203	0x3e3ea3b4	0.18617135
204	0x3e688b7a	0.22709456
205	0xbdd2b8c9	-0.10289151
206	0x3f3fd995	0.7494138
207	0x3ec472cd	0.38368836
208	0xbee2bbab	-0.44283804
209	0x3e26f754	0.16305286
210	0xbee0cbbc	-0.43905437
211	0x3ef49307	0.47768423
212	0xbeb49c87	-0.3527567
213	0xbef0d4b1	-0.4703727
214	0xbf0b8350	-0.5449724
215	0x3f05cff6	0.5227045
216	0x3f58fe3b	0.84762925
217	0x3f0b6724	0.54454255
218	0xbf015127	-0.50514454
219	0x3ea22fd3	0.31677112
220	0x3e9655f3	0.2936245
221	0x3eae6bb7	0.34066555
222	0xbdcb7fd7	-0.09936493
223	0x3ebfc0ea	0.3745187
224	0xbe9b7d58	-0.30369067
225	0x3ebf533a	0.37368184
226	0xbe90f2bd	-0.28310195
227	0xbf3f78cd	-0.747937
228	0x3eca0cc5	0.39462867
229	0xbcc9f4e3	-0.024652904
230	0x3edecf9c	0.43517768
231	0x3eedf114	0.4647299
232	0xbea57531	-0.32315972
233	0x3f1e51d7	0.6184363
234	0xbeabe240	-0.33571053
235	0xbc86b6dc	-0.016444616
236	0x3e2ba523	0.16762213
237	0x3e0e1f85	0.13879211
238	0x3edec833	0.43512115
239	0x3b3c28b5	0.0028710787
240	0xbded0d68	-0.11574823
241	0xbe91c1a6	-0.28468055
242	0x3dc5ce91	0.0965854
243	0x3de472b6	0.11154692
244	0x3f3426d5	0.7037175
245	0xbd9b32de	-0.075780615
246	0xbe2333c7	-0.1593772
247	0x3ec69063	0.38782033
248	0x3e376d60	0.17912817
249	0x3e3eb61d	0.18624158
250	0x3e441282	0.19147685
251	0xbd8259be	-0.06364773
252	0x3c58fa00	0.013243198
253	0xbdac4bfe	-0.08412932
254	0xbe5e3a85	-0.21702011
255	0xbd81ab82	-0.06331541

l1.bias f4 [8]
0	0x3f10fed4	0.56638837
1	0x3eb67563	0.35636434
2	0x3f1e5dba	0.61861765
3	0x3f1abbf1	0.60443026
4	0x3f1bc715	0.6085065
5	0x3ecc5352	0.39907318
6	0x3f5e4bcf	0.86834425
7	0x3ec6e8d4	0.3884951

l2.weight f4 [8, 8]
0	0x3f3fcfc2	0.7492639
1	0x3f0e2c80	0.5553665
2	0xbdf1d357	-0.11807888
3	0x3e99635e	0.29958624
4	0xbf2c6f6c	-0.67357516
5	0x3f4b1322	0.7932607
6	0xbeace6c5	-0.33769813
7	0xbf9809f6	-1.187804
8	0x3fa59277	1.2935323
9	0xbed2a096	-0.41138142
10	0x3ebf7a22	0.37397867
11	0xbf2193a3	-0.631159
12	0xbe1a918e	-0.15094587
13	0xbf5d7c01	-0.8651734
14	0x3f5c6b8d	0.8610161
15	0x3ea425fc	0.3206023
16	0xbf0898f2	-0.53358376
17	0xbf677a6b	-0.9042117
18	0x3f837cc1	1.0272447
19	0x3f7e7f36	0.9941286
20	0x3e56d91b	0.20981257
21	0xbf6adfab	-0.9174754
22	0x3f42f4a9	0.7615457
23	0xbf61f770	-0.88268185
24	0x3f47ed29	0.7809625
25	0x3e189a50	0.14902616
26	0x3f91a738	1.1379156
27	0x3f81b3dd	1.0133015
28	0xbf3d3c6c	-0.7392032
29	0xbeb6d322	-0.35707957
30	0x3e8067f3	0.25079307
31	0xbf18e7b5	-0.59728557
32	0xbf9ba7f3	-1.2160629
33	0x3f522bf6	0.8209833
34	0xbf50af0c	-0.815171
35	0x3f0f7103	0.5603182
36	0x3fb229cd	1.3919007
37	0x3f3ea8a0	0.7447605
38	0x3f766280	0.9624405
39	0x3f84767f	1.0348662
40	0x3f03f3dd	0.5154398
41	0x3f9ef118	1.2417326
42	0x3f0c7a8a	0.5487448
43	0x3f506c50	0.8141527
44	0xbe46904e	-0.19390985
45	0x3f734359	0.9502464
46	0x3e5865e2	0.21132615
47	0xbf24aa85	-0.6432269
48	0xbf5ee383	-0.87065905
49	0x3edfb1b8	0.43690276
50	0x3e6e9118	0.23297536
51	0xbd9d8f88	-0.07693392
52	0x3f8809be	1.0627973
53	0xbeb2954a	-0.34879524
54	0x3f8b6316	1.0889614
55	0xbf838fc7	-1.0278252
56	0x3f547180	0.8298569
57	0xbf8b062f	-1.0861262
58	0x3ee2dff1	0.4431148
59	0xbe9e48ce	-0.3091492
60	0x3f83ce13	1.0297264
61	0xbf49acc9	-0.78779274
62	0x3f82a45c	1.0206409
63	0x3f3b6447	0.73199886

l2.bias f4 [8]
0	0xbefdbf5d	-0.4956006
1	0x3ce10317	0.027467294
2	0x3f06d46a	0.5266787
3	0x3e9d8621	0.30766395
4	0x3ef5218d	0.4787716
5	0xbd9f203f	-0.07769822
6	0xbe6a4935	-0.22879489
7	0x3f17a927	0.5924248

l3.weight f4 [6, 8]
0	0xbf5b1013	-0.855714
1	0xbf579ed5	-0.84226733
2	0x3f23a3c8	0.63921785
3	0xbe606d76	-0.21916756
4	0xbd9aff6c	-0.07568249
5	0xbe440414	-0.1914218
6	0x3f907edb	1.1288713
7	0xbe76daa2	-0.2410684
8	0xbfbb9170	-1.4653759
9	0x3ecf1684	0.40446866
10	0x3f5bf758	0.8592429
11	0x3f4d19de	0.80117595
12	0xbf9883ea	-1.1915257
13	0xbd62a27f	-0.05533075
14	0xbf8ba346	-1.0909202
15	0xbcfd9c5a	-0.030958343
16	0xbf681dd0	-0.9067049
17	0xbfd3f6f7	-1.6559743
18	0xbf808bb7	-1.0042638
19	0xbf84facf	-1.0389041
20	0x3f1d1a4c	0.6136825
21	0xbfb9343a	-1.4469063
22	0xbe2ddd07	-0.16978846
23	0x3ec78b10	0.38973284
24	0xbfc89f46	-1.5673606
25	0xbf00fc28	-0.5038476
26	0xbf3a869e	-0.7286166
27	0xbf813a42	-1.0095904
28	0x3f00bd2a	0.5028864
29	0x3f174e7d	0.5910414
30	0xbf8fa4d4	-1.1222177
31	0xbf8ca5b6	-1.0988071
32	0x3f9e7afd	1.2381283
33	0xbf930a67	-1.148755
34	0xbf6fb632	-0.93637383
35	0x3edea6af	0.43486544
36	0xbf50c4bd	-0.815502
37	0x3f5ce557	0.86287445
38	0xbecb0bc2	-0.39657408
39	0xbf4690ea	-0.7756487
40	0xbf4b8ba6	-0.7950996
41	0x3f8dc7a4	1.107655
42	0xbf78a252	-0.9712268
43	0xbf39c965	-0.7257293
44	0xbede87ef	-0.43463084
45	0xbf1f1dbf	-0.62154764
46	0xbf92c3c5	-1.1465994
47	0x3f3b12fd	0.7307585

l3.bias f4 [6]
0	0xbf1f36a4	-0.6219275
1	0xbc99f23e	-0.018792268
2	0x3e3e8c2d	0.1860816
3	0x3e52582c	0.20541447
4	0x3e2b952a	0.1675612
5	0xbeabc121	-0.33545783
