files/dataTerminal.pth (torch, 4695 bytes, 6 tensors)

l1.weight f4 [8, 48]
000000 fe 85 03 3f d7 72 c9 3d 7a 9a 04 3e 89 49 de 3e
       0.5137633 0.09836357 0.12949553 0.43415478
000010 be 0d c8 bd 62 a1 28 3e 09 56 57 3f b6 61 8b be
       -0.09768246 0.16467813 0.84115654 -0.27222985
000020 2e e3 d1 bd 29 ea bb 3e 57 75 92 3e da 7b b0 3e
       -0.10248409 0.36702088 0.28605148 0.3446949
000030 88 83 09 3e 0a 72 a1 3e 32 23 39 3f 63 d4 04 3f
       0.13429081 0.31532317 0.7231933 0.51886576
000040 35 b9 0b bf 76 90 b5 3e 3f 11 06 bf c9 c8 e8 3e
       -0.5457948 0.35461777 -0.52370065 0.45465687
000050 2f f6 f9 be bc 17 07 bf a2 f8 01 bf 4c a4 fd 3e
       -0.48820636 -0.5277059 -0.5077001 0.4953941
000060 77 37 ae 3e 2c 70 e6 3e ce 14 95 be de e8 a7 3e
       0.3402669 0.45007455 -0.29117435 0.3279485
000070 5c 6e a4 3e 25 00 1d be 9d bf a2 be 2a c2 97 3e
       0.32115448 -0.15332086 -0.31786814 0.29640323
000080 63 34 9d be c0 d6 10 3f 4a 6e c0 be e1 18 23 bf
       -0.3070403 0.5657768 -0.37584144 -0.6370984
000090 b1 6d ce 3e b9 11 69 be a0 28 92 3e bc 45 c9 3e
       0.40318063 -0.22760667 0.2854662 0.39311016
0000a0 a3 1b 9e be 06 e7 0d 3e 27 99 1e be 4e 13 c7 bd
       -0.3088046 0.1385766 -0.1548811 -0.09720479
0000b0 41 0b c8 3e 9f d6 5d 3d 21 62 00 bd a8 01 1b be
       0.39071086 0.054159757 -0.031343583 -0.1513735
0000c0 ff d8 aa bd b4 46 9a 3e 75 c7 c5 bd 39 0c d4 bd
       -0.0834217 0.30132067 -0.09657184 -0.10353894
0000d0 7b 27 d6 bd 58 6b 6f ba a3 bc 12 bf 3b 34 4c be
       -0.10456749 -0.0009133122 -0.57319087 -0.199418
0000e0 a0 5f d0 3d 48 3d 8f 3e 60 25 2c 3e d5 7c 37 be
       0.10174489 0.2797644 0.16811132 -0.17918713
0000f0 1e 89 b0 bd 34 75 02 3e 11 bd 12 bf e4 fb 93 be
       -0.08619903 0.12740022 -0.5731974 -0.28903115
000100 6e 4f 00 3f a6 07 87 be ef db 33 3f 0e f6 a3 be
       0.501212 -0.26373023 0.7025747 -0.32023662
000110 27 7b 28 3f 83 4b 16 3f 15 bc db 3e f5 7f 53 be
       0.65812916 0.5870897 0.42916933 -0.2065428
000120 39 cc 8b 3e 60 cc fc 3d 34 9d d7 3e 96 82 24 be
       0.27304247 0.12343669 0.42112124 -0.1606544
000130 c7 fe 90 be 4a 99 8f 3d 3c d2 a6 be d2 d8 da bc
       -0.2831938 0.070116594 -0.3258227 -0.026714716
000140 bc a2 9f 3e 7f 64 1d be 53 1e 6b 3d 33 5b 41 3f
       0.31178844 -0.15370367 0.057401966 0.75529784
000150 73 bd 4e be 6a 93 8b bd 67 8f 03 bf 05 90 a8 be
       -0.20189457 -0.068152264 -0.5139069 -0.32922378
000160 72 de 23 3e df 1c 80 3e 0d 32 19 3f cc 5d c5 3e
       0.16002825 0.25022027 0.59841996 0.38548124
000170 25 aa 7f 3d f7 fe 39 be 46 fa 92 be ba ca db be
       0.06241812 -0.18163668 -0.28706568 -0.42928106
000180 0b e2 06 be 18 f8 f4 3e 90 87 c1 3d 13 68 dc bd
       -0.13172166 0.4784553 0.094496846 -0.10762038
000190 11 94 8c be 7c 11 20 be 1d f4 ef be 7c 6d 44 be
       -0.27456716 -0.1563167 -0.4686593 -0.1918239
0001a0 d0 7a e6 3d 2e e4 05 3e 22 d0 05 3e d8 bc d6 bd
       0.112538934 0.13075325 0.13067678 -0.10485238
0001b0 b3 3a b2 3d 15 01 43 3e 7c eb ef be db c3 97 bd
       0.08702602 0.19043382 -0.46859348 -0.07410403
0001c0 da 34 62 3f 67 4d e4 bd 43 87 02 3f 1a d8 44 be
       0.88361895 -0.11147576 0.50987643 -0.19223061
0001d0 4a c6 05 3f 2c 58 45 3f c7 ab f8 3e bd 59 90 be
       0.5225569 0.77087665 0.48568556 -0.28193465
0001e0 fc ed 18 3e 3e 1c ae 3e 92 e6 c7 3e e5 33 9a be
       0.14934534 0.34005922 0.390431 -0.30117717
0001f0 c0 09 b3 bd be 76 cc 3d d4 ed e0 be ea 84 ef bd
       -0.08742094 0.09983586 -0.43931448 -0.11695273
000200 24 57 f5 3d ca 5e 39 be 86 74 0e be 03 6d 19 bf
       0.119795114 -0.18102565 -0.13911638 -0.59931964
000210 4b f5 52 be f2 77 bd bd 30 48 aa 3e 9b e7 97 be
       -0.20601384 -0.092513934 0.332582 -0.29668888
000220 f8 3d d2 bd 78 44 e1 bc d3 69 31 3f e4 c4 e9 ba
       -0.10265726 -0.027498469 0.693021 -0.0017835167
000230 9a 12 f8 3d 5f 5c 5e be b4 8f bd 3c 9b 32 fb be
       0.12112923 -0.21714924 0.023139812 -0.49062046
000240 a7 a6 f5 3e 47 15 ee bd 2b de 48 3e 19 37 00 3f
       0.47978708 -0.11625152 0.19616 0.5008407
000250 cf 88 4d be 6e 7c 41 3b ec 17 34 3f f7 f9 c8 be
       -0.2007172 0.0029523629 0.70349 -0.39253208
000260 02 6c 62 bb da 06 00 3f f3 36 dd 3e f9 d7 c4 3e
       -0.003454924 0.50010455 0.43205985 0.38446024
000270 ce b3 77 3e b3 df 05 3e c6 ac 52 3f 34 dc d5 3e
       0.24189684 0.13073616 0.8229488 0.41769564
000280 ac 2f cc 3d 8b ce f0 3e 1f 7f 1e 3e d6 78 ec 3d
       0.0997003 0.4703258 0.1547818 0.11546485
000290 e6 5c 13 3e 67 5a c3 3d e2 83 10 be 6d 2b a7 3d
       0.14390907 0.09538727 -0.1411281 0.0816258
0002a0 72 53 49 3f aa 52 df 3e 74 b4 5e be 84 37 32 3f
       0.7864295 0.43617755 -0.21748525 0.6961596
0002b0 9a f0 f1 3e 8e 63 d3 3d 97 85 1e bf d3 73 79 3e
       0.47253877 0.10321723 -0.6192259 0.2436059
0002c0 32 7a b1 bd 04 53 15 3f fd 0e ae be 5c 7d 6a bf
       -0.08665885 0.58329797 -0.3399581 -0.91597533
0002d0 0e 4e b5 3e dd 78 c4 bd 67 00 85 3e f7 4c 3a 3e
       0.35411114 -0.09593365 0.2597687 0.18193422
0002e0 58 2b d5 3c 2f 94 18 3f 84 7d 61 be 57 cf 50 3d
       0.026021644 0.5960111 -0.22020537 0.050978985
0002f0 80 3d 9e 3d 4f f9 be be c0 2a ee bd 43 85 15 bf
       0.07726574 -0.37299582 -0.11629248 -0.58406466
000300 8c f6 7b be 99 86 65 3c bc 05 0e 3d ed 92 77 be
       -0.24605769 0.014009141 0.034673437 -0.24177141
000310 0b d0 1f 3e 87 bd f3 bd a2 41 3b bf 85 39 10 3e
       0.15606706 -0.11901384 -0.7314702 0.14084442
000320 79 60 94 3d 9d 35 26 3f dc 18 e8 3e 8b a8 a6 bc
       0.07244963 0.6492556 0.45331466 -0.02034404
000330 ae f2 43 bd c2 f1 9a 3b 06 ce 0d bf 43 ca ec bd
       -0.04783886 0.004728527 -0.5539249 -0.11562016
000340 4f fa 05 3f 16 8f 49 bd 55 ff 1e 3f a4 07 d0 be
       0.52335066 -0.049208723 0.62108356 -0.4063083
000350 b8 da 10 3f 18 e2 fc 3e ea f2 bf 3e 75 ce 99 bd
       0.5658374 0.49391246 0.37490016 -0.07510082
000360 69 3a d8 3e 1c 6b 0b 3f 4f fc 3c 3e 03 f6 b4 be
       0.42232063 0.5446031 0.18455623 -0.35343942
000370 a6 61 9a be 39 8a 74 3e 70 a0 7e be 93 a7 97 bd
       -0.30152625 0.23880853 -0.2486589 -0.07405009
000380 e1 5d b9 3e 1d 04 ce be df a3 29 bd 8d 3a 6a 3f
       0.36204436 -0.40237513 -0.041416045 0.9149559
000390 8a 6a 5b be b1 81 42 3e 63 7f 50 bf 10 e2 b7 be
       -0.2142736 0.18994786 -0.81444377 -0.3591466
0003a0 c3 eb ac 3e 9e 25 b8 3e 49 ac 0f 3f 85 4f ee 3e
       0.33773622 0.359662 0.5612226 0.46545044
0003b0 e8 a2 02 3f 23 94 25 bb cd ec 4d bd e8 9c 5e be
       0.51029825 -0.0025265298 -0.05027466 -0.21739542
0003c0 2e 93 2a bd de f5 17 3f bd 53 cf 3e 7e aa 51 be
       -0.041644268 0.5935954 0.40493575 -0.20475194
0003d0 c8 1d f0 be 8c 36 13 3f c0 a9 b6 be 27 d0 99 be
       -0.4689772 0.57505107 -0.35676384 -0.3004162
0003e0 da 08 bc bd 7e ff 07 3e 5c 75 6c 3e 61 74 3d bd
       -0.09181376 0.13281056 0.23091644 -0.046253566
0003f0 27 71 e4 3e c3 5c 14 3e 0e fa d1 be e1 c5 18 be
       0.44617578 0.14488511 -0.4101109 -0.14919235

l1.bias f4 [8]
000000 08 c0 17 3f bd bd 12 3f b7 f2 ef 3e 1e 99 30 3f
       0.5927739 0.5732077 0.46864864 0.6898364
000010 17 7d 50 3f a6 09 0d 3f f4 45 5b 3f a3 55 0a 3f
       0.8144087 0.5509285 0.85653615 0.5403692

l2.weight f4 [8, 8]
000000 11 2f f1 be b0 08 2a 3e 08 01 6e bf a7 78 ac bf
       -0.4710622 0.16604877 -0.92970324 -1.347432
000010 2c a8 43 3f 4c 78 40 bf 48 06 41 3f 46 08 64 3f
       0.76428485 -0.7518356 0.7540021 0.89075124
000020 07 7f ea be 8f 61 8d 3f b0 79 a6 3f fe 08 52 3f
       -0.4580004 1.1045398 1.3005886 0.8204497
000030 e8 e0 8d 3f f5 a7 4f 3e 95 20 6e 3f ea 58 81 bf
       1.1084261 0.20278914 0.93018466 -1.010526
000040 18 20 fb 3d 72 d0 32 3f af b2 8c 3f ae 07 80 3f
       0.12261981 0.6984931 1.099203 1.0002344
000050 8e 2d 1e 3f 60 05 a1 3f cc 78 3f be 17 a5 a0 bc
       0.6178826 1.2579765 -0.18698424 -0.019609971
000060 ea 07 67 3f d5 a1 29 bf 76 f6 02 bf dc c5 44 3f
       0.9024645 -0.6626256 -0.5115732 0.7686441
000070 64 81 24 bf 70 56 1d 3f 28 dc f5 3e 54 17 a6 3f
       -0.64259934 0.6146002 0.48019528 1.2975869
000080 bb 78 46 3f a7 70 20 bf 6e ad 11 bf 06 7f 3b 3f
       0.7752797 -0.62671894 -0.5690526 0.732407
000090 48 1d bd 3e 21 34 73 bf 96 22 10 3f 49 ce eb 3e
       0.36936402 -0.9500142 0.56302774 0.4605582
0000a0 c9 c6 40 3f d9 1e 21 bf 0f 2c c7 be 53 a9 89 3f
       0.7530332 -0.62937695 -0.38900802 1.0754799
0000b0 b3 ea 64 be a4 60 12 3f 5a 96 bc 3e d0 9b 4a be
       -0.22355156 0.5717871 0.3683346 -0.19786
0000c0 93 b8 3e bf 1d ea 8a 3f 7c dd 35 3f 2a 2f 3c be
       -0.7450039 1.0852696 0.71041083 -0.18377367
0000d0 9b f7 7b 3f 6a cf 4c 3d e4 ae 5b 3f 6a c3 ad be
       0.9842469 0.050002493 0.85813737 -0.33938152
0000e0 6c a8 2b 3f fd 14 a5 be 04 c4 1f bf 77 95 57 3f
       0.67053866 -0.32242575 -0.6240847 0.8421244
0000f0 d6 c1 ea 3d 3f 08 15 bf d6 bd 83 3f 72 7a 9c 3e
       0.114627525 -0.5821571 1.0292308 0.30562168

l2.bias f4 [8]
000000 06 ab 4a 3f 80 34 00 3e 10 8f 39 be 1a c5 b1 3e
       0.7916721 0.12520027 -0.1812098 0.3472069
000010 66 6c 85 3e 7f 01 88 be 9b 7d fd 3e a2 cb 7e be
       0.26059264 -0.2656364 0.49509892 -0.24882367

l3.weight f4 [6, 8]
000000 28 b3 7b bf 8f ef 18 bf 84 d1 98 bf b5 04 ae 3e
       -0.98320246 -0.5974054 -1.1938939 0.33987966
000010 c4 9f 52 3f 95 e5 10 3f 87 05 48 bf 18 35 30 3f
       0.82275033 0.56600314 -0.78133434 0.68831015
000020 8f 46 76 bf 86 5e 25 3f a2 30 06 3f 36 6d b6 bf
       -0.96201414 0.64597356 0.5241796 -1.4252079
000030 e8 19 c1 bf 9f 46 a2 bf 33 d0 fb 3e 9f 0d a0 bf
       -1.5086031 -1.2677802 0.4918228 -1.2504157
000040 ea 35 47 bf 42 e2 ba 3d 70 d0 8e 3e 5a 3f 4c bf
       -0.7781664 0.091251865 0.278934 -0.79784167
000050 ba b5 0f be 89 35 82 3e 63 d2 8c bc 65 51 da 3e
       -0.14034167 0.2543147 -0.017190164 0.42640224
000060 9e fb 64 3f 08 f9 9c bf 6c da cd bf e5 81 ab 3e
       0.8944644 -1.2263498 -1.6082282 0.3349754
000070 42 60 39 3f 05 83 94 bf 96 22 cd be fa 3b 70 3e
       0.724125 -1.1602484 -0.4006545 0.23460379
000080 30 0d 76 3f f0 89 97 3d 5a 05 07 bf 48 44 56 bf
       0.9611387 0.07399356 -0.5274254 -0.8369794
000090 bc 95 2d bf ea d3 8a bf 64 72 eb 3e 82 43 c6 3d
       -0.678066 -1.0845921 0.4598571 0.09680845
0000a0 4d 54 0a bf 6d 50 25 bf f0 fb d8 3e d3 b3 09 3f
       -0.5403488 -0.64575845 0.42379713 0.53790015
0000b0 f5 a5 41 bf ec 69 10 3f c5 d7 43 bf 1e e6 b6 bf
       -0.75643855 0.56411624 -0.76501113 -1.4288976

l3.bias f4 [6]
000000 a9 6c 23 be 4f 7c 0d 3d 69 a1 34 bf 86 25 91 bd
       -0.1595942 0.034542378 -0.7055879 -0.07087235
000010 d6 2a 9a be 04 92 cb 3e
       -0.30110806 0.3975984
